model.pt (torch, 38235 bytes, 26 tensors)

fcs.0.weight f4 [70, 50]
-0.07089159 0.09318808 -0.018992182 -0.031121861 -0.049330425 -0.039181236 0.1554159 0.03950318
0.039833553 -0.0039191484 -0.08913472 -0.059903156 -0.14564838 -0.00371326 0.065055676 0.027027639
-0.09946396 0.005551268 0.03857561 -0.041741412 0.10869201 -0.082780905 -0.111678384 0.0054239845
-0.09721708 0.028610438 0.08004304 -0.059066705 0.10099879 0.121765375 -0.06289538 0.10774286
0.137775 -0.01999401 -0.024935516 -0.0031392488 -0.05485995 -0.081409134 -0.09542215 -0.13575944
-0.04043112 -0.024553796 0.06367923 0.09342593 -0.047147058 -0.01783897 0.11035086 -0.023778172
0.023127344 0.019711575 0.08580998 0.11386085 0.02953755 -0.06710189 -0.03171028 -0.1127091
-0.08498933 -0.046265785 -0.1324071 0.09809564 -0.023106799 -0.06637968 0.024059886 0.008352563
-0.029687136 -0.032231588 -0.023609921 -0.049642697 0.080194496 0.15250896 0.0137340315 0.12281517
-0.062281623 -0.03222996 -0.056148574 -0.003593322 0.076803796 -0.0691808 -0.14886132 -0.07116497
-0.049438823 0.09934966 -0.13467315 0.12417375 0.063635044 -0.026202464 0.06583523 0.08301703
0.0027146123 0.033259887 0.04170451 0.05547201 0.080716446 -0.15369031 -0.07690461 0.1669108
0.033605855 0.050630476 0.10246588 0.11398542 0.072297804 0.0002445729 -0.06642262 -0.060436
-0.05037824 -0.13107675 -0.049496382 0.006155724 0.10993142 -0.036829762 0.030918678 0.0029800038
-0.0630269 -0.08034483 0.10793068 0.08780746 0.11809584 -0.049288843 -0.11845671 0.09145274
0.07020255 0.11563518 0.107910186 -0.02672269 0.03616374 0.037268594 0.032628495 -0.06006004
0.09739235 -0.11331038 0.08354421 -0.028217861 -0.12577692 0.09828479 0.056745585 0.10960376
0.14488529 0.012723356 -0.09461109 -0.07937959 -0.069449894 -0.106205314 -0.06493632 0.10578838
-0.017062252 -0.027292632 -0.10795466 -0.078062885 -0.082392015 0.012597731 0.012746446 -0.023116255
0.023772776 0.013610344 -0.00663313 0.12340035 0.0577399 -0.12460289 0.15052329 0.07848867
-0.021071343 -0.09145561 -0.043518573 -0.016791087 0.024534868 -0.010556246 -0.0027686793 0.021052606
-0.029160496 -0.038972273 -0.038657825 0.027786598 0.13751876 0.026118478 -0.05005448 -0.13670354
-0.11029525 0.08857424 0.12652169 -0.13933302 -0.0568933 -0.052448615 0.077174336 0.139728
0.11388681 0.072275795 0.038685516 -0.00024463938 0.14411895 -0.1315999 -0.0073065585 -0.012372373
-0.038955852 0.052850373 0.1261349 -0.014493131 -0.021177007 0.09622346 0.120582126 -0.07413722
0.043513317 0.13934709 0.06393372 -0.075190075 0.011027044 0.017050762 0.011657613 -0.09705558
0.10132464 -0.13093583 0.05618229 -0.048989385 0.012091365 -0.08859073 -0.085979074 0.13497679
-0.06855449 -0.04685126 -0.046361566 0.06642863 -0.039472062 -0.0065113795 -0.09265345 0.0043806834
0.12221312 -0.05185049 0.13585284 0.057489123 -0.12348117 0.01510283 0.048255887 0.022787442
-0.07451763 -0.033969354 -0.09337734 0.0017008462 0.018232318 -0.059414975 -0.0018269531 -0.106301285
-0.12191222 0.13860224 -0.07285296 0.03368352 -0.06591288 -0.07662457 -0.05380111 0.114397876
-0.093541 -0.102983736 -0.08202217 -0.13889231 -0.04222323 -0.002061336 0.111841604 0.1377386
00000000: 9c2f 91bd 64d9 be3d 7e95 9bbc 46f3 febc
00000010: b30e 4abd 817c 20bd 5825 1f3e 16ce 213d
00000020: 8228 233d 336c 80bb 448c b6bd 035d 75bd
00000030: d924 15be 2a5a 73bb e93b 853d 1169 dd3c
00000040: c3b3 cbbd 69e7 b53b 7501 1e3d 0bf9 2abd
00000050: eb99 de3d 0989 a9bd a3b7 e4bd aebb b13b
00000060: c019 c7bd 7060 ea3c 9bed a33d eeef 71bd
00000070: 74d8 ce3d 2060 f93d 4bcf 80bd 4aa8 dc3d
00000080: e414 0d3e 7aca a3bc 9145 ccbc dbbb 4dbb
00000090: d4b4 60bd d5b9 a6bd b06c c3bd 8604 0bbe
000000a0: 1a9b 25bd 0b25 c9bc 426a 823d 1856 bf3d
000000b0: 461d 41bd 0823 92bc a2ff e13d 71ca c2bc
000000c0: 8e75 bd3c 2b7a a13c 25bd af3d e12f e93d
000000d0: bbf8 f13c b76c 89bd a3e2 01bd 07d4 e6bd
000000e0: e30e aebd 3181 3dbd ba95 07be 5ee6 c83d
000000f0: 784a bdbc 12f2 87bd 3d19 c53c 30d9 083c
00000100: 7032 f3bc 4505 04bd 9869 c1bc 2456 4bbd
00000110: 033d a43d 4f2b 1c3e b404 613c 8586 fb3d
00000120: 041b 7fbd 9003 04bd 0cfc 65bd f07d 6bbb
00000130: 4f4b 9d3d aaae 8dbd 1a6f 18be f1be 91bd
00000140: 5d80 4abd d677 cb3d c2e7 09be cf4e fe3d
00000150: 1753 823d 8da6 d6bc 9fd4 863d d504 aa3d
00000160: a3e7 313b 853b 083d 59d2 2a3d 9e36 633d
00000170: aa4e a53d fe60 1dbe 2a80 9dbd aaea 2a3e
00000180: 4ba6 093d e761 4f3d a2d9 d13d 3071 e93d
00000190: df10 943d 053a 8039 9508 88bd bd8b 77bd
000001a0: 6a59 4ebd fc38 06be b8bc 4abd f5b5 c93b
000001b0: b923 e13d ceda 16bd 2b49 fd3c 2b4c 433b
000001c0: 3f14 81bd d58b a4bd c30a dd3d 66d4 b33d
000001d0: 3bdc f13d 19e3 49bd 6e99 f2bd 934b bb3d
000001e0: 5bc6 8f3d 23d2 ec3d 0400 dd3d 8be9 dabc
000001f0: 6e20 143d f4a6 183d 75a5 053d 8401 76bd
00000200: a475 c73d 460f e8bd 3a19 ab3d 2529 e7bc
00000210: aacb 00be 8949 c93d 0f6e 683d f077 e03d
00000220: cf5c 143e 9f75 503c 76c3 c1bd c491 a2bd
00000230: bf3b 8ebd 2c82 d9bd 55fd 84bd 94a7 d83d
00000240: 23c6 8bbc cc94 dfbc 5517 ddbd 6fdf 9fbd
00000250: 25bd a8bd b766 4e3c 78d6 503c 4d5e bdbc
00000260: 20bf c23c ecfd 5e3c ba5a d9bb 53b9 fc3d
00000270: ac80 6c3d cd2f ffbd c722 1a3e abbe a03d
00000280: cf9d acbc 144d bbbd 8840 32bd 768d 89bc
00000290: 59fd c83c 1bf4 2cbc bb72 35bb 8476 ac3c
000002a0: fee1 eebc 64a1 1fbd ab57 1ebd b8a0 e33c
000002b0: b8d1 0c3e 6bf6 d53c ed05 4dbd 03fc 0bbe
000002c0: 7ae2 e1bd 6966 b53d e78e 013e 51ad 0ebe
000002d0: f308 69bd 5cd4 56bd 940d 9e3d db14 0f3e
000002e0: 7d3d e93d 5505 943d b474 1e3d f142 80b9
000002f0: eb93 133e 20c2 06be db6b efbb 7eb5 4abc
00000300: 2c90 1fbd a279 583d 8229 013e 9974 6dbc
00000310: 677b adbc ce10 c53d c3f3 f63d 41d5 97bd
00000320: 053b 323d 01b1 0e3e afef 823d 41fd 99bd
00000330: c6aa 343c 0aae 8b3c 93ff 3e3c 13c5 c6bd
00000340: 4b83 cf3d 0b14 06be 671f 663d 18a9 48bd
00000350: dc1a 463c 0f6f b5bd cc15 b0bd 5b37 0a3e
00000360: 4c66 8cbd 1be7 3fbd a0e5 3dbd bc0b 883d
00000370: 75ad 21bd 695d d5bb 18c1 bdbd d68b 8f3b
00000380: df4a fa3d 2e61 54bd 021d 0b3e b779 6b3d
00000390: b2e3 fcbd dc71 773c f7a7 453d bbac ba3c
000003a0: b39c 98bd 7323 0bbd 9e3c bfbd eeee de3a
000003b0: f15b 953c 1e5d 73bd 6076 efba 7db4 d9bd
000003c0: 1dad f9bd bfed 0d3e ef33 95bd bbf7 093d
000003d0: 55fd 86bd 58ed 9cbd 8d5e 5cbd 6f49 ea3d
000003e0: 6c92 bfbd 23e9 d2bd 3dfb a7bd c939 0ebe
000003f0: 44f2 2cbd 7b17 07bb 360d e53d 590b 0d3e

fcs.0.bias f4 [70]
0.013953676 0.09345197 0.14587666 0.14060983 -0.07185186 0.087908916 -0.10700961 0.09012929
0.016036922 -0.081442 0.038726863 -0.046648663 -0.12939446 -0.12711397 0.10845495 0.072730646
-0.06409619 0.071870685 0.12879197 -0.03781744 -0.021106254 0.07092491 -0.044056818 -0.113613725
0.032570504 -0.11049431 -0.048611283 -0.07334951 0.008450958 -0.04782075 -0.07788924 -0.0347893
-0.0085067935 0.1146997 0.1141177 -0.09290595 -0.06078451 -0.13915873 0.10641399 0.09854845
-0.018993441 -0.08953113 0.029979588 -0.035845287 -0.11236015 0.042516354 0.11483353 -0.13010958
0.050680563 0.00024904188 -0.0040057334 -0.132249 0.10744008 0.07430047 0.052307464 0.074584804
-0.015862549 0.03542233 0.05408546 0.10117704 0.08509959 0.12483923 0.08500788 -0.038627684
-0.07579361 0.1612505 0.108477876 0.0030016857 0.0018102885 -0.07728502
00000000: f69d 643c bf63 bf3d b160 153e 06fc 0f3e
00000010: 1127 93bd 9709 b43d db27 dbbd b595 b83d
00000020: dd5f 833c 10cb a6bd 0fa0 1e3d ab12 3fbd
00000030: fb7f 04be 2a2a 02be a11d de3d cef3 943d
00000040: dd44 83bd f030 933d 0be2 033e 76e6 1abd
00000050: 06e7 acbc 1441 913d ec74 34bd 50ae e8bd
00000060: a668 053d d74a e2bd a01c 47bd 4538 96bd
00000070: e375 0a3c b1df 43bd 6584 9fbd 3a7f 0ebd
00000080: 1460 0bbc ade7 ea3d 8ab6 e93d 7a45 bebd
00000090: 2ef9 78bd a07f 0ebe 94ef d93d c5d3 c93d
000000a0: 2298 9bbc 195c b7bd c197 f53c 82d2 12bd
000000b0: 141d e6bd a125 2e3d d72d eb3d 723b 05be
000000c0: 6c96 4f3d d691 8239 8742 83bb 486c 07be
000000d0: 8b09 dc3d d82a 983d 5a40 563d ebbf 983d
000000e0: 2df2 81bc 0117 113d b788 5d3d e835 cf3d
000000f0: b248 ae3d b6ab ff3d 9d18 ae3d 1038 1ebd
00000100: ae39 9bbd da1e 253e a629 de3d eeb7 443b
00000110: 3447 ed3a 9c47 9ebd

fcs.1.weight f4 [35, 70]
0.09680338 0.007212159 0.055517077 0.08700132 -0.09384741 0.08013715 -0.08167533 0.07744014
-0.039008077 0.07156797 0.008624549 -0.09905393 -0.070475504 -0.012208218 0.07482564 -0.060243174
0.03576613 0.033003047 0.10394928 0.014205065 0.05699929 0.037246116 -0.012087886 0.042642485
-0.063902915 -0.0021313769 -0.0147633115 0.014348724 -0.06636113 -0.07131946 0.05525336 0.102769464
0.12705146 -0.03525088 -0.11399435 0.1299818 0.10083555 0.12103769 -0.102437384 -0.038790658
-0.002653318 -0.060627904 -0.04758235 0.1017974 0.039716225 0.092632316 0.071419425 0.12461753
-0.0589874 0.04719188 -0.1312996 0.061001264 0.1212087 -0.03219492 -0.007595526 -0.0032100866
0.07905389 0.08503979 -0.0794781 -0.006840343 0.07454325 0.113971725 -0.14540091 0.0066117034
0.07538918 0.032323115 -0.06510286 -0.118806355 -0.1075035 0.0009636842 -0.12529272 0.07668603
0.030930104 -0.13175061 -0.04861955 -0.027062071 0.10788491 0.12319279 -0.051284343 -0.04387821
0.062229116 0.07129321 -0.041562047 -0.13018213 -0.04209076 -0.066977374 -0.0077617513 -0.086234294
-0.015014826 0.055416286 -0.032406997 0.09036329 0.07325761 0.07074078 -0.06498037 -0.09781462
-0.10693932 -0.060595058 -0.09775735 -0.007573741 -0.12032809 0.048750278 -0.089652464 0.113520786
0.07470362 0.009834969 0.038361806 -0.09420115 0.07647115 -0.048646115 -0.05836332 -0.07986258
-0.08915359 -0.0063896226 0.083923705 -0.020375125 -0.055946983 -0.088712655 -0.023485135 -0.031688403
0.0431203 -0.016153911 0.03160627 -0.06706123 0.065114714 -0.04329448 0.084017545 0.07914687
0.10534701 0.015130374 0.02617394 -0.038536113 0.09120948 0.028954579 -0.08517611 -0.10369125
-0.09817563 -0.12914045 0.012326473 0.050609294 -0.014378082 0.010540984 0.078971244 -0.05742832
-0.025446514 -0.08575623 -0.094775386 -0.07805987 0.0648392 -0.1072519 -0.09063902 -0.10015773
-0.055585604 0.106265455 0.10417324 -0.03416803 -0.0835459 0.04559208 -0.026417295 0.039584354
0.08377993 0.0737073 0.10072294 0.044494446 -0.05655193 0.03579965 0.0944783 -0.023869362
-0.044918943 -0.0056555956 -0.07860319 0.052621916 -0.097042054 -0.007438734 0.016109738 0.12220345
-0.043858796 -0.04125882 0.049916673 0.011931736 0.07252003 -0.031628303 0.07420503 0.05921848
0.07206378 0.044932798 -0.11264698 0.079105206 -0.10643618 -0.08244773 0.04990426 0.10000086
0.047876682 -0.045803532 -0.07881035 -0.025943786 -0.042963807 0.019595992 -0.028520014 0.011835646
-0.0870916 0.020747997 -0.028875267 -0.040145304 -0.058138907 -0.013694393 -0.044958144 -0.038928308
0.109057926 0.13352177 -0.108172625 0.03280443 0.03168984 0.05900864 0.08298792 -0.047294788
-0.086470574 -0.006267379 0.0379356 -0.05279051 0.02300858 0.0034039477 -0.018099526 -0.015824981
0.044856112 0.011555739 0.09246838 -0.03997111 0.050475843 -0.07854956 -0.0197972 0.04566261
0.07317323 -0.08211221 -0.0439423 0.04397314 -0.0387344 -0.0076199304 0.07474952 0.09548524
0.09900897 0.09506914 -0.10775999 0.07005961 0.06973387 0.040629033 0.0094069755 0.0797302
0.067479245 0.009406166 0.0060177306 -0.05941418 0.110850066 0.054909233 -0.11729689 -0.10164087
00000000: da40 c63d fa53 ec3b e065 633d c02d b23d
00000010: 1233 c0bd f21e a43d 6545 a7bd f098 9e3d
00000020: efc6 1fbd 3a92 923d fb4d 0d3c c9dc cabd
00000030: 7655 90bd fa04 48bc 2f3e 993d 8cc1 76bd
00000040: 817f 123d 342e 073d 5ce3 d43d 5cbc 683c
00000050: 1678 693d 628f 183d 450c 46bc e3a9 2e3d
00000060: 88df 82bd 92ae 0bbb d1e1 71bc e916 6b3c
00000070: 58e8 87bd f00f 92bd 5951 623d cc78 d23d
00000080: c719 023e 3a63 10bd df75 e9bd f319 053e
00000090: de82 ce3d 9ce2 f73d b1ca d1bd f4e2 1ebd
000000a0: 4ae3 2dbb f754 78bd b6e5 42bd 287b d03d
000000b0: 7bad 223d 03b6 bd3d 5944 923d 7a37 ff3d
000000c0: c69c 71bd 464c 413d 6773 06be 76dc 793d
000000d0: 443c f83d d2de 03bd e4e3 f8bb 5160 52bb
000000e0: 02e7 a13d 5729 ae3d 6ac5 a2bd f524 e0bb
000000f0: 22aa 983d 026a e93d fae3 14be fda6 d83b
00000100: a465 9a3d 3e65 043d a654 85bd bf50 f3bd
00000110: cc2a dcbd c09f 7c3a bc4c 00be 910d 9d3d
00000120: 2161 fd3c a2e9 06be 4b25 47bd 47b1 ddbc
00000130: c4f2 dc3d 804c fc3d 880f 52bd a3b9 33bd
00000140: f5e3 7e3d 2d02 923d f73c 2abd 774e 05be
00000150: 5c67 2cbd 6f2b 89bd 4a56 febb 9b9b b0bd
00000160: bf00 76bc 30fc 623d 33bd 04bd 6310 b93d
00000170: 1608 963d 8be0 903d 6e14 85bd 0853 c8bd
00000180: 0103 dbbd 8632 78bd 0135 c8bd 252d f8bb
00000190: 936e f6bd 5fae 473d b69b b7bd 967d e83d
000001a0: 36fe 983d da22 213c 4521 1d3d 88ec c0bd
000001b0: e89c 9c3d 2641 47bd 600e 6fbd fe8e a3bd
000001c0: 2896 b6bd 0a60 d1bb 31e0 ab3d bce9 a6bc
000001d0: aa28 65bd fbae b5bd e663 c0bc b3cb 01bd
000001e0: e99e 303d 3555 84bc 9375 013d 6657 89bd
000001f0: dd5a 853d 8d55 31bd 6411 ac3d c117 a23d
00000200: 2cc0 d73d 63e5 773c bb6a d63c 0bd8 1dbd
00000210: 09cc ba3d 2732 ed3c d070 aebd 145c d4bd
00000220: 4e10 c9bd 653d 04be faf4 493c b14b 4f3d
00000230: 0c92 6bbc 17b4 2c3c adbb a13d f539 6bbd
00000240: 3575 d0bc f6a0 afbd 9919 c2bd dadd 9fbd
00000250: 6aca 843d e2a6 dbbd f3a0 b9bd 7f1f cdbd
00000260: bbad 63bd b4a1 d93d c858 d53d c7f3 0bbd
00000270: 1d1a abbd c3be 3a3d 1569 d8bc 3423 223d
00000280: d094 ab3d daf3 963d d447 ce3d cf3f 363d
00000290: ffa2 67bd a7a2 123d d77d c13d ae89 c3bc
000002a0: edfc 37bd 9352 b9bb b6fa a0bd 148a 573d
000002b0: fcbd c6bd a0c0 f3bb 92f8 833c cd45 fa3d
000002c0: 48a5 33bd 02ff 28bd 6d75 4c3d 547d 433c
000002d0: 6285 943d ae8c 01bd cff8 973d 148f 723d
000002e0: 2d96 933d 740b 383d 76b3 e6bd e901 a23d
000002f0: 36fb d9bd 5bda a8bd 6968 4c3d 40cd cc3d
00000300: 571a 443d 7c9c 3bbd 5267 a1bd 1088 d4bc
00000310: d1fa 2fbd c687 a03c cea2 e9bc 4cea 413c
00000320: 155d b2bd b4f7 a93c d38b ecbc 676f 24bd
00000330: 1023 6ebd 735e 60bc 0826 38bd 4a73 1fbd
00000340: c359 df3d eeb9 083e 9c89 ddbd f05d 063d
00000350: 35cd 013d 0bb3 713d 92f5 a93d 2eb8 41bd
00000360: 7c17 b1bd 965e cdbb 5c62 1b3d dd3a 58bd
00000370: 7d7c bc3c c414 5f3b 7545 94bc 64a3 81bc
00000380: 0bbb 373d 4854 3d3c 1060 bd3d bfb8 23bd
00000390: c2bf 4e3d 97de a0bd bd2d a2bc b808 3b3d
000003a0: d9db 953d 722a a8bd d7fc 33bd 2e1d 343d
000003b0: f6a7 1ebd 9cb0 f9bb 4716 993d c48d c33d
000003c0: 37c5 ca3d 9cb3 c23d 45b1 dcbd 6a7b 8f3d
000003d0: a2d0 8e3d a16a 263d b71f 1a3c 9649 a33d
000003e0: 8f32 8a3d 521c 1a3c 6230 c53b 495c 73bd
000003f0: 5c05 e33d 81e8 603d 5a39 f0bd 1729 d0bd

fcs.1.bias f4 [35]
0.021453397 0.06086807 -0.11221346 -0.04526616 -0.048595324 -0.011997234 -0.11414522 0.03898574
0.013641698 -0.12012042 -0.10276456 -0.020775137 0.053597815 -0.090386234 0.01600066 -0.05806595
-0.0942031 -0.10244824 -0.013930623 0.08660868 0.0763407 0.13372608 -0.06871296 -0.05961641
0.116794415 0.12823536 0.020926638 -0.07707381 -0.11666244 0.037038345 -0.09757434 0.07415084
0.07635816 -0.0037032687 0.06781911
00000000: 09bf af3c cc50 793d 2cd0 e5bd 0269 39bd
00000010: e40b 47bd 0c90 44bc f8c4 e9bd 83af 1f3d
00000020: 6e81 5f3c b201 f6bd 3a76 d2bd 9f30 aabc
00000030: 6289 5b3d 6b1c b9bd d113 833c 90d6 6dbd
00000040: 8eed c0bd 62d0 d1bd 453d 64bc e45f b13d
00000050: 8358 9c3d 7def 083e 61b9 8cbd 5630 74bd
00000060: e931 ef3d 2150 033e 576e ab3c e0d8 9dbd
00000070: b8ec eebd 85b5 173d 0ed5 c7bd 65dc 973d
00000080: ab61 9c3d 8ab2 72bb bfe4 8a3d

fcs.2.weight f4 [16, 35]
-0.15791175 -0.120402545 0.04434955 0.050925773 0.01981813 -0.090970255 0.113034494 0.11684575
0.009685962 0.121940196 0.07753948 0.14174674 0.072855234 0.095954545 0.10314724 0.036788568
0.089436516 0.13021338 -0.09578601 -0.051088843 -0.11409637 -0.047280394 -0.010904657 -0.07182847
0.077341065 -0.1154904 0.11816894 0.02085786 0.08234587 0.011544137 0.034330662 -0.16795091
-0.1471767 -0.12155106 -0.008541589 0.05356739 -0.11238535 -0.092424095 -0.115114525 -0.17145783
-0.09890244 -0.037581034 -0.18048896 -0.13471809 -0.07187514 0.0089301625 0.11020217 -0.083300956
0.12020424 -0.04468361 -0.12944718 -0.083551645 -0.043572225 0.15855551 -0.09777399 -0.17160241
-0.08782488 0.10953914 0.0151260635 0.056005906 -0.14223094 -0.12945226 -0.08693807 -0.15963656
-0.044521753 0.062084734 -0.16319881 -0.07219016 -0.06183772 -0.03973069 0.14372522 0.043730535
0.07265427 0.05085409 -0.10453785 -0.07257399 -0.078182265 0.059808087 0.12573081 0.04055005
0.030860389 0.0006134524 -0.16492258 -0.09318917 0.07185824 0.04045964 -0.083014205 0.08502029
-0.12530255 0.003673733 0.042296566 -0.13734272 -0.0006864711 0.077142715 -0.14921772 -0.0043551535
-0.14693241 0.0476472 -0.061258975 4.702212e-05 0.08719055 -0.14163007 0.07384439 0.056299627
0.024875006 0.03185025 -0.019404866 0.07123341 -0.0476364 -0.056010995 0.14090994 0.052939028
-0.060908172 -0.060799617 -0.124582745 0.11712689 -0.033430167 -0.054986797 -0.023089383 -0.0796013
0.10921551 0.092124 0.1360275 0.032593112 0.12970059 -0.008351942 0.057396732 -0.057321094
0.066208676 -0.10781711 -0.053117067 0.026007546 0.0767877 0.1235299 0.015946358 -0.15963757
0.1461245 0.15762392 -0.009982678 0.05859821 -0.045235544 0.12791516 0.20487852 -0.031262632
0.017103765 0.01830353 -0.11425595 -0.043474015 0.07499837 -0.16232981 -0.10898275 -0.028350055
0.054726988 0.12237155 -0.15030111 0.044662647 -0.0441964 -0.09663092 0.10167382 0.17834741
0.089456186 -0.012792055 0.058665115 -0.030740874 0.10645629 0.047608763 -0.010097855 -0.10979582
0.016859194 0.12995535 0.04139249 -0.13040116 -0.076526836 0.056241862 0.083518006 0.13155502
0.082306996 -0.025019504 -0.16506732 0.09632427 -0.1428802 0.007099452 0.080912255 0.06764432
-0.0094568 -0.046162196 0.08673661 -0.104721844 -0.10857648 -0.048115067 -0.019912146 0.083970025
-0.071137935 -0.121134855 -0.15368657 0.085131794 -0.08145392 0.1296013 -0.15877026 -0.034613602
-0.07605935 0.12921514 -0.014959116 -0.07098722 -0.10781967 0.0764352 -0.13009427 -0.17024942
-0.12175533 -0.08337714 0.024372324 -0.01916376 0.14835712 -0.1028113 0.052648798 0.08910517
-0.055776604 -0.07553432 -0.057083763 -0.057277657 0.066301264 0.12736872 0.042361107 -0.09736113
-0.08384713 -0.11043231 -0.009423507 -0.02434783 0.14474568 0.17086056 0.052759364 0.0062628477
0.11762821 0.080045305 0.005522018 -0.0008713887 -0.103803195 0.069421045 -0.15439607 -0.11414578
0.09758221 -0.055918932 0.09416338 -0.09449656 0.04141458 -0.10979748 0.0952545 -0.10359737
-0.13052744 0.020358415 -0.062075373 0.02431959 0.050452054 0.16490869 -0.09860912 -0.062186547
00000000: 9eb3 21be 9c95 f6bd e0a7 353d 8b97 503d
00000010: a259 a23c 9d4e babd a17e e73d d34c ef3d
00000020: dfb1 1e3c c8bb f93d 05cd 9e3d 0f26 113e
00000030: 2035 953d d183 c43d dc3e d33d 9caf 163d
00000040: 7e2a b73d a856 053e 752b c4bd 8942 51bd
00000050: 5cab e9bd 16a9 41bd 72a9 32bc ce1a 93bd
00000060: fe64 9e3d 3b86 ecbd 8f02 f23d 1ade aa3c
00000070: f4a4 a83d 9f23 3d3c 4f9e 0c3d 53fb 2bbe
00000080: 7db5 16be c3ef f8bd 05f2 0bbc 7b69 5b3d
00000090: 4a2a e6bd d848 bdbd 2ac1 ebbd a492 2fbe
000000a0: 5d8d cabd 92ee 19bd 19d2 38be 8af3 09be
000000b0: 4633 93bd d14f 123c adb1 e13d b199 aabd
000000c0: a42d f63d 2906 37bd cd8d 04be 201d abbd
000000d0: ca78 32bd 605c 223e bb3d c8bd 8bb8 2fbe
000000e0: 88dd b3bd 0e56 e03d 4fd3 773c 7366 653d
000000f0: fda4 11be 228f 04be 960c b2bd c477 23be
00000100: 715c 36bd 904c 7e3d 971d 27be 6fd8 93bd
00000110: 8d49 7dbd a6bc 22bd b42c 133e ca1e 333d
00000120: c3cb 943d 614c 503d f117 d6bd aca1 94bd
00000130: 061e a0bd 53f9 743d 94bf 003e cf17 263d
00000140: edce fc3c 18d0 203a 77e1 28be f7d9 bebd
00000150: 6a2a 933d 02b9 253d 5a03 aabd 1e1f ae3d
00000160: 504f 00be 03c3 703b 2a3f 2d3d 92a3 0cbe
00000170: 4cf4 33ba 00fd 9d3d 88cc 18be adb5 8ebb
00000180: 7375 16be b629 433d b1ea 7abd 9e39 4538
00000190: f690 b23d 7907 11be ba3b 973d 709a 663d
000001a0: abc6 cb3c 6875 023d f4f6 9ebc d2e2 913d
000001b0: 631e 43bd c96b 65bd b24a 103e 98d6 583d
000001c0: d97a 79bd 0509 79bd 3d25 ffbd 39e0 ef3d
000001d0: 12ee 08bd d639 61bd f225 bdbc 0206 a3bd
000001e0: 62ac df3d 82ab bc3d cb4a 0b3e 5b80 053d
000001f0: 3bd0 043e 95d6 08bc d618 6b3d 86c9 6abd
00000200: 6a98 873d 38cf dcbd 4891 59bd c70d d53c
00000210: df42 9d3d 3ffd fc3d f0a1 823c 0878 23be
00000220: a9a1 153e 2a68 213e 638e 23bc ad04 703d
00000230: e848 39bd 31fc 023e adcb 513e 3f0d 00bd
00000240: 321d 8c3c 49f1 953c 06ff e9bd cf11 32bd
00000250: bf98 993d c939 26be 5932 dfbd 603e e8bc
00000260: 6829 603d ef9d fa3d 89e8 19be 2ef0 363d
00000270: 4907 35bd 6fe6 c5bd 5d3a d03d b4a0 363e
00000280: ce34 b73d c495 51bc d54a 703d 49d4 fbbc
00000290: c105 da3d 6801 433d 7971 25bc a2dc e0bd
000002a0: 4b1c 8a3c 0413 053e 2c8b 293d e287 05be
000002b0: 1aba 9cbd de5d 663d 7d0b ab3d 5cb6 063e
000002c0: 9290 a83d b4f5 ccbc 6807 29be a945 c53d
000002d0: 304f 12be 85a2 e83b 53b5 a53d 1b89 8a3d
000002e0: b2f0 1abc 9214 3dbd f7a2 b13d 6878 d6bd
000002f0: 585d debd 4e14 45bd cc1e a3bc 7af8 ab3d
00000300: c4b0 91bd 8d15 f8bd 0360 1dbe 9459 ae3d
00000310: 50d1 a6bd 34b6 043e ac94 22be fec6 0dbd
00000320: 01c5 9bbd f950 043e 1417 75bc bf61 91bd
00000330: 8fd0 dcbd 0f8a 9c3d 6f37 05be dd55 2ebe
00000340: dc5a f9bd a2c1 aabd 78a8 c73c 51fd 9cbc
00000350: eeea 173e bb8e d2bd 44a6 573d c57c b63d
00000360: 0276 64bd bdb1 9abd aad0 69bd fa9b 6abd
00000370: f5c8 873d f26c 023e d782 2d3d 4665 c7bd
00000380: 0bb8 abbd 562a e2bd 0e65 1abc 1a75 c7bc
00000390: 3638 143e 12f6 2e3e 341a 583d 9338 cd3b
000003a0: 0fe7 f03d cbee a33d 0bf2 b43b e86d 64ba
000003b0: c596 d4bd 9f2c 8e3d 011a 1ebe 43c5 e9bd
000003c0: 2fd9 c73d 400b 65bd bbd8 c03d 6a87 c1bd
000003d0: 56a2 293d 80dd e0bd cb14 c33d dc2a d4bd
000003e0: fca8 05be b1c6 a63c bf42 7ebd e039 c73c
000003f0: d0a6 4e3d d3dd 283e 94f3 c9bd 52b7 7ebd

fcs.2.bias f4 [16]
0.13475123 -0.013185281 -0.17847279 -0.09013098 0.10486899 0.06675881 -0.16056006 -0.04866857
-0.02845359 0.09837987 0.10742893 0.11975333 0.0063170143 -0.10696417 0.03862179 0.14032282
00000000: 3afc 093e 1407 58bc 92c1 36be 9796 b8bd
00000010: 8ec5 d63d d8b8 883d db69 24be b258 47bd
00000020: 8117 e9bc 637b c93d b303 dc3d 3c41 f53d
00000030: f5fe ce3b 0810 dbbd e231 1e3d c9b0 0f3e

fcs.3.weight f4 [8, 16]
-0.19682093 -0.22639811 -0.101393536 0.06387651 0.21943404 -0.11094197 -0.051681183 0.15146787
0.24383977 -0.21662623 0.21895604 0.18086018 -0.16243307 0.05056582 0.22383659 -0.15671189
-0.006105846 -0.116790466 -0.051517114 0.23868085 0.13753058 0.084705286 -0.0775046 -0.015876457
0.07547089 -0.2704055 0.1676298 0.11236712 0.22169375 -0.103936695 0.050663892 -0.24243283
0.21498631 -0.06958837 -0.21218227 0.18981032 0.038305815 0.20763054 -0.09359822 -0.02623472
-0.13957582 0.145386 -0.23159517 0.019295646 -0.050953668 0.11279658 0.031244244 0.0813253
0.1863082 -0.013265057 0.20956238 -0.2527631 -0.07789339 -0.05044092 -0.07069654 -0.040591717
0.16883034 -0.08643215 0.042852283 -0.04396913 -0.11691813 0.1019199 -0.18539965 0.102318764
-0.048673563 -0.15037405 -0.13380137 -0.162604 0.07473699 -0.18921661 -0.12733246 0.03514108
0.12880155 0.12135467 -0.13579603 -0.22149786 -0.0967441 0.26329008 0.12780784 -0.088547714
0.20148288 0.0757714 0.22110689 -0.03797944 -0.094278544 0.14577042 0.11732743 -0.0123806335
0.11373597 -0.1582333 0.21669741 0.22851977 0.232126 -0.09539997 0.10334891 -0.29900485
0.22525594 -0.15472028 -0.13530628 -0.25211102 0.15375844 0.07612159 0.045508515 -0.13165343
0.064807035 0.11552276 -0.033242553 -0.085454464 0.22431818 0.036844645 0.21915963 -0.22264597
-0.17030591 -0.16363038 -0.100133695 -0.16101679 -0.0038510074 -0.17702095 -0.04423776 0.103065014
-0.0400832 -0.071262494 -0.060456198 -0.0017399 0.16965625 -0.033190116 -0.24536765 -0.18492395
00000000: 6d8b 49be e8d4 67be 6aa7 cfbd b0d1 823d
00000010: 51b3 603e 8b35 e3bd a6af 53bd 651a 1b3e
00000020: 22b1 793e 44d3 5dbe 0336 603e 6933 393e
00000030: db54 26be 1b1e 4f3d 6b35 653e 1579 20be
00000040: 8c13 c8bb d72f efbd 9c03 53bd c168 743e
00000050: d1d4 0c3e f779 ad3d bbba 9ebd 580f 82bc
00000060: 7b90 9a3d 9772 8abe 25a7 2b3e bc20 e63d
00000070: b003 633e c3dc d4bd f184 4f3d 5040 78be
00000080: 5f25 5c3e 5984 8ebd 4f46 59be a35d 423e
00000090: 8fe6 1c3d 1a9d 543e 6cb0 bfbd 32ea d6bc
000000a0: f7ec 0ebe 11e0 143e 4927 6dbe e711 9e3c
000000b0: cbb4 50bd e501 e73d eef3 ff3c e18d a63d
000000c0: 94c7 3e3e ae55 59bc 8597 563e 2a6a 81be
000000d0: 9286 9fbd 239b 4ebd 59c9 90bd 8043 26bd
000000e0: dce1 2c3e 5703 b1bd e085 2f3d f918 34bd
000000f0: c672 efbd 61bb d03d 68d9 3dbe 808c d13d
00000100: ee5d 47bd a8fb 19be 3a03 09be aa81 26be
00000110: b50f 993d 00c2 41be 7163 02be 18f0 0f3d
00000120: 8ee4 033e cc88 f83d 1d0e 0bbe 56d0 62be
00000130: c521 c6bd f5cd 863e 0fe0 023e 8158 b5bd
00000140: 8751 4e3e 092e 9b3d d869 623e 5490 1bbd
00000150: 1c15 c1bd d744 153e 5d49 f03d 24d8 4abc
00000160: 67ee e83d e907 22be ede5 5d3e 1601 6a3e
00000170: 70b2 6d3e 0f61 c3bd 98a8 d33d 2a17 99be
00000180: 7ea9 663e fe6e 1ebe bb8d 0abe b214 81be
00000190: da72 1d3e a3e5 9b3d 2367 3a3d 28d0 06be
000001a0: 8db9 843d 3297 ec3d 5829 08bd c002 afbd
000001b0: aab3 653e 69ea 163d 626b 603e 4efd 63be
000001c0: ac64 2ebe b98e 27be e512 cdbd 96e1 24be
000001d0: 2f61 7cbb fb44 35be a732 35bd c013 d33d
000001e0: 482e 24bd 12f2 91bd eba0 77bd 5b0d e4ba
000001f0: 5eba 2d3e 5cf2 07bd a841 7bbe b45c 3dbe

fcs.3.bias f4 [8]
-0.1283129 0.21195695 0.06785032 -0.05643282 0.10851078 -0.06725269 0.2050057 -0.028963502
00000000: 7564 03be 3e0b 593e 1cf5 8a3d 1a26 67bd
00000010: e63a de3d c7bb 89bd 04ed 513e de44 edbc

fcs.4.weight f4 [2, 8]
0.033680815 0.017430907 0.0034746611 -0.22367613 -0.37266067 0.24677235 -0.31206828 0.34442478
-0.32676756 -0.29229498 0.32836843 0.34318087 0.064882725 0.07615968 0.3128092 -0.38173893
00000000: e5f4 093d 43cb 8e3c 24b7 633b 5b0b 65be
00000010: 61cd bebe e4b1 7c3e 6ac7 9fbe 7258 b03e
00000020: 144e a7be b0a7 95be e81f a83e 67b5 af3e
00000030: 3ce1 843d 9bf9 9b3d 8728 a03e 4973 c3be

fcs.4.bias f4 [2]
-0.19240646 -0.085362315
00000000: 3306 45be 70d2 aebd

bcs.0.weight f4 [70]
0.9902371 0.9867061 0.9961399 1.0250131 0.9979725 1.0021706 1.0105431 0.9923639
1.0150983 1.0048519 1.0156064 0.9944457 1.0008365 0.99553293 0.99635226 1.000896
0.9951951 0.98495895 1.012794 0.98006076 1.0123411 0.99664056 1.0063818 0.99299854
1.0213394 0.9827142 0.9984357 1.0034164 1.0024707 1.0065079 1.0088552 0.9983088
1.0141828 0.99476403 1.0068954 1.0104855 1.000466 1.0014158 1.0023258 0.98388696
0.9890259 0.97525775 1.0030406 0.99542344 1.0024099 0.9971612 1.0148809 1.014633
0.9895078 0.9892594 1.0109673 1.0008862 1.008586 1.0136201 1.0100373 0.99766046
0.9977783 1.0119218 1.0136702 1.00172 0.9923323 0.9849143 1.0094587 0.98461264
0.99931896 1.0011446 0.9953964 0.99643826 0.9983893 1.0116538
00000000: 2e80 7d3f c598 7c3f 0603 7f3f a133 833f
00000010: 207b 7f3f 2047 803f 7a59 813f 900b 7e3f
00000020: beee 813f fd9e 803f 64ff 813f fe93 7e3f
00000030: 691b 803f 3fdb 7e3f f110 7f3f 5c1d 803f
00000040: 1bc5 7e3f 4526 7c3f 3ca3 813f 43e5 7a3f
00000050: 6594 813f d623 7f3f 1ed1 803f 2735 7e3f
00000060: 40bb 823f 2893 7b3f 7b99 7f3f f36f 803f
00000070: f650 803f 40d5 803f 2b22 813f 2a91 7f3f
00000080: bed0 813f dba8 7e3f f3e1 803f 9757 813f
00000090: 450f 803f 652e 803f 364c 803f 04e0 7b3f
000000a0: cd30 7d3f 7eaa 793f a263 803f 12d4 7e3f
000000b0: f84e 803f f545 7f3f 9ee7 813f 7fdf 813f
000000c0: 6250 7d3f 1b40 7d3f 6067 813f 0a1d 803f
000000d0: 5919 813f 4ebe 813f e748 813f ad66 7f3f
000000e0: 666e 7f3f a786 813f f2bf 813f 5c38 803f
000000f0: 7d09 7e3f 5823 7c3f f135 813f 930f 7c3f
00000100: 5ed3 7f3f 8225 803f 4cd2 7e3f 9416 7f3f
00000110: 7196 7f3f df7d 813f

bcs.0.bias f4 [70]
-0.0124623105 0.008726901 -0.0019477544 0.013004943 0.010097777 0.00977015 -0.009794997 0.013739247
0.0023071843 -0.0021450953 0.019453902 -0.009203772 -0.016420381 0.0227165 -0.0067553967 0.011783764
0.014217355 0.018424582 -0.013006545 -0.0030547765 0.0055648675 -0.0059181666 -0.0017978314 -0.016047183
0.009474937 0.0004125865 -0.005200508 -0.008629553 0.009993762 -0.0019302558 0.027149636 -0.008074329
0.012987815 0.0070620007 0.009915823 -0.008398265 0.020140762 0.009953231 -0.014043219 -0.010122563
0.0011607377 0.026691888 0.03478188 0.0132559 -0.023617238 0.0006556447 0.005489883 0.0010572553
0.01597659 -0.00045041568 -0.009482238 0.014013199 -0.02343861 0.016684787 -0.0087921815 0.03333088
-0.019587567 -0.023104722 -0.020841306 0.0012539641 -0.002274555 0.0043094945 4.404862e-05 0.005499197
0.016193988 -0.0032369343 -0.007707322 0.015185506 -0.0035802198 -0.0052035945
00000000: b82e 4cbc 47fb 0e3c cb4b ffba af12 553c
00000010: 2571 253c fb12 203c 327b 20bc 941a 613c
00000020: 2134 173b ba94 0cbb ca5d 9f3c 6bcb 16bc
00000030: 0984 86bc f417 ba3c 605c ddbb b010 413c
00000040: e9ef 683c 26ef 963c 6719 55bc a532 48bb
00000050: 7e59 b63b 2eed c1bb 36a5 ebba 6275 83bc
00000060: c43c 1b3c 6c50 d839 0669 aabb f862 0dbc
00000070: e0bc 233c a300 fdba ea68 de3c 314a 04bc
00000080: d8ca 543c 5b68 e73b fa75 223c e098 09bc
00000090: 3dfe a43c e012 233c 8815 66bc 1bd9 25bc
000000a0: e523 983a f2a8 da3c 7277 0e3d 462f 593c
000000b0: f078 c1bc 92df 2b3a 7ae4 b33b 9a93 8a3a
000000c0: 56e1 823c c525 ecb9 645b 1bbc 9e97 653c
000000d0: 5402 c0bc 89ae 883c 150d 10bc f685 083d
000000e0: 1b76 a0bc 1d46 bdbc 63bb aabc 0e5c a43a
000000f0: b310 15bb a936 8d3b d8c0 3838 9c32 b43b
00000100: 41a9 843c bf22 54bb b48d fcbb a1cc 783c
00000110: 1fa2 6abb ea82 aabb

bcs.0.running_mean f4 [70]
0.116863765 0.18809198 0.1890414 0.17661521 0.045162745 0.21947397 0.057076246 0.15547228
0.059292052 0.08124831 0.06946414 0.058500435 0.123028666 0.045198217 0.105127275 0.11364074
0.09803088 0.21990371 0.30575296 0.052351344 0.068171434 0.11652954 0.23964374 0.04051327
0.05894005 0.18053216 0.07882137 0.1418585 0.036496755 0.1313649 0.072624035 0.14308882
0.05255778 0.21780281 0.29149342 0.054454908 0.19763762 0.0033848193 0.14617819 0.2836846
0.08331179 0.071093164 0.08253185 0.20969425 0.05608003 0.15527181 0.18507636 0.06839369
0.3052009 0.062193953 0.14685561 0.14750166 0.18776467 0.1470425 0.14879788 0.11465157
0.26821634 0.10886207 0.24540645 0.14120942 0.18830705 0.22659208 0.12687606 0.043793943
0.123807475 0.17342639 0.14936654 0.09789398 0.17478436 0.09659356
00000000: 4556 ef3d 2f9b 403e 1294 413e 9eda 343e
00000010: 92fc 383d c9bd 603e c8c8 693d 2034 1f3e
00000020: 39dc 723d 8465 a63d 3743 8e3d 279e 6f3d
00000030: 74f6 fb3d c421 393d f84c d73d 7abc e83d
00000040: 6ac4 c83d 702e 613e a78b 9c3e 5d6e 563d
00000050: 779d 8b3d 0aa7 ee3d 2b65 753e 3ef1 253d
00000060: 1f6b 713d 6cdd 383e 196d a13d 5b43 113e
00000070: 9f7d 153d 8584 063e e9bb 943d e085 123e
00000080: d446 573d b307 5f3e a03e 953e 1c0c 5f3d
00000090: 8461 4a3e d8d3 5d3b bcaf 153e 1c3f 913e
000000a0: 5f9f aa3d 4b99 913d 7506 a93d 17ba 563e
000000b0: 2cb4 653d 93ff 1e3e a884 3d3e fe11 8c3d
000000c0: 4b43 9c3e 16bf 7e3d 5161 163e ad0a 173e
000000d0: 6245 403e 4f92 163e 795e 183e 71ce ea3d
000000e0: a753 893e 14f3 de3d d44b 7b3e 3499 103e
000000f0: 90d3 403e c107 683e cceb 013e 4761 333d
00000100: c68e fd3d b096 313e 8bf3 183e a47c c83d
00000110: acfa 323e d8d2 c53d

bcs.0.running_var f4 [70]
0.020579014 0.051199056 0.059274193 0.028832555 0.009819799 0.11327439 0.0089698285 0.06265025
0.00708433 0.020938119 0.009670345 0.0066353246 0.04315284 0.007899738 0.015786748 0.024466246
0.02193359 0.10602848 0.07365687 0.01413299 0.015772093 0.033372782 0.19790019 0.007983686
0.007989436 0.088792056 0.016134566 0.032343555 0.0032983725 0.040613346 0.012214806 0.05266576
0.009305862 0.07041162 0.10155725 0.023079904 0.07435797 0.00034392308 0.01833297 0.05627141
0.008185393 0.023620699 0.014771387 0.099714056 0.0070012785 0.05043387 0.03557432 0.021371922
0.14521597 0.014824455 0.057887074 0.0594655 0.021109166 0.034552302 0.024232924 0.028172148
0.08329044 0.041449066 0.05824038 0.038921967 0.042271998 0.06605063 0.02487732 0.009949669
0.03185131 0.029978491 0.074357204 0.01963427 0.052554566 0.017791105
00000000: 5295 a83c 1ab6 513d 7fc9 723d 4032 ec3c
00000010: 39e3 203c 67fc e73d 30f6 123c c64e 803d
00000020: ab23 e83b 6b86 ab3c 5e70 1e3c 236d d93b
00000030: 08c1 303d e76d 013c 3653 813c 706d c83c
00000040: 12ae b33c 7625 d93d 6ad9 963d 0e8e 673c
00000050: 7a34 813c e6b1 083d 59a6 4a3e 02ce 023c
00000060: 20e6 023c 9cd8 b53d a32c 843c ad7a 043d
00000070: 8229 583b 2e5a 263d 9c20 483c 0db8 573d
00000080: 9d77 183c f833 903d 3ffd cf3d 1112 bd3c
00000090: fe48 983d 9350 b439 062f 963c da7c 663d
000000a0: 071c 063c 3280 c13c b003 723c e236 cc3d
000000b0: fb6a e53b bf93 4e3d 61b6 113d 2b14 af3c
000000c0: 7fb3 143e 45e2 723c ff1a 6d3d 1992 733d
000000d0: 21ed ac3c b786 0d3d 2084 c63c 47c9 e63c
000000e0: 2e94 aa3d 7fc6 293d 778d 6e3d a46c 1f3d
000000f0: 6725 2d3d 8d45 873d 85cb cb3c f003 233c
00000100: 8576 023d 7495 f53c 9748 983d 0cd8 a03c
00000110: 7543 573d a7be 913c

bcs.1.weight f4 [35]
1.0070841 0.996947 1.0120476 0.99768776 1.0116767 0.9827449 0.98273313 1.0254248
0.9884507 1.0114553 0.97636056 0.99020934 0.99738497 1.0105066 1.008619 0.99052984
1.0105995 0.9989632 1.0056115 1.0080216 1.0042189 1.0181398 1.0028872 0.99023426
1.01359 0.97980046 0.97790927 1.0226728 0.97632265 0.9860342 1.0005295 1.0212576
0.9962474 1.0018636 1.0012183
00000000: 22e8 803f eb37 7f3f c78a 813f 7768 7f3f
00000010: 9f7e 813f 2b95 7b3f 6694 7b3f 1f41 833f
00000020: 1b0b 7d3f 5e77 813f c4f2 793f 5c7e 7d3f
00000030: 9f54 7f3f 4858 813f 6d1a 813f 5d93 7d3f
00000040: 535b 813f 0dbc 7f3f e1b7 803f da06 813f
00000050: 3f8a 803f 6852 823f 9c5e 803f fe7f 7d3f
00000060: 51bd 813f 34d4 7a3f 4358 7a3f f1e6 823f
00000070: 48f0 793f bd6c 7c3f 5a11 803f 92b8 823f
00000080: 120a 7f3f 113d 803f ec27 803f

bcs.1.bias f4 [35]
-0.012799509 -0.022348646 -0.0066619297 -0.006339031 0.019728104 -0.012212604 0.02935835 0.019806433
-0.0036047276 -0.008989949 -0.006072318 0.012243164 0.016261434 0.025523173 0.018674325 0.00019755494
0.010514587 0.0049012518 -0.0006783022 -0.007757868 -0.004866644 0.015320386 -0.008615827 -0.015551779
0.030407652 -0.00998796 0.027708301 0.008106765 0.015777953 -0.010771598 -0.0007433123 -0.011250357
-0.020622186 -0.026109463 -0.019001827
00000000: 08b5 51bc 8214 b7bc 514c dabb a5b7 cfbb
00000010: d59c a13c 6017 48bc ec80 f03c 1a41 a23c
00000020: 4b3d 6cbb 944a 13bc 4cfa c6bb 8d97 483c
00000030: b336 853c f915 d13c e6fa 983c c026 4f39
00000040: 6045 2c3c ae9a a03b 17d0 31ba b735 febb
00000050: 5e78 9fbb 5b02 7b3c 6629 0dbc e4cc 7ebc
00000060: 7819 f93c 8aa4 23bc 85fc e23c 3dd2 043c
00000070: c440 813c 5b7b 30bc d8da 42ba 6b53 38bc
00000080: dcef a8bc 83e3 d5bc b8a9 9bbc

bcs.1.running_mean f4 [35]
0.32002956 0.21211664 0.1933787 0.1840129 0.20313998 0.25942075 0.23549278 0.22506285
0.2854101 0.24425188 0.19282591 0.3416206 0.28328675 0.18252501 0.38280278 0.18679792
0.27000985 0.2504351 0.20462786 0.32324728 0.25885373 0.31494576 0.21743217 0.14362806
0.22755854 0.30872762 0.2918364 0.11814761 0.24762172 0.225579 0.24041267 0.32735544
0.3393332 0.23106216 0.26456666
00000000: eada a33e 1b35 593e 1105 463e e16d 3c3e
00000010: ed03 503e ccd2 843e 0525 713e e076 663e
00000020: 4621 923e 2a1d 7a3e 2874 453e e5e8 ae3e
00000030: f60a 913e d6e7 3a3e bafe c33e f447 3f3e
00000040: bb3e 8a3e 0839 803e f789 513e ab80 a53e
00000050: 7a88 843e 9240 a13e 8aa6 5e3e 3c13 133e
00000060: 1b05 693e 8c11 9e3e 956b 953e 60f7 f13d
00000070: 8c90 7d3e 2efe 663e bd2e 763e 229b a73e
00000080: 15bd ad3e 8f9b 6c3e 4875 873e

bcs.1.running_var f4 [35]
0.27018517 0.091269046 0.13188086 0.061916344 0.11292554 0.099898815 0.15342572 0.11188087
0.17310654 0.1415513 0.09501946 0.31849697 0.18751955 0.10728016 0.34141988 0.059236474
0.13444397 0.10615625 0.11405622 0.3016798 0.12533444 0.14183632 0.10682648 0.055657092
0.07948815 0.35048544 0.24657331 0.036259875 0.15774138 0.09770912 0.15051772 0.13681538
0.18445495 0.11155859 0.2323272
00000000: b655 8a3e 44eb ba3d c70b 073e fe9b 7d3d
00000010: 8145 e73d c097 cc3d a21b 1d3e cc21 e53d
00000020: d742 313e d3f2 103e 9099 c23d 0912 a33e
00000030: 2005 403e b3b5 db3d 96ce ae3e f2a1 723d
00000040: aeab 093e 7368 d93d 4f96 e93d c675 9a3e
00000050: ac57 003e 8a3d 113e d7c7 da3d b1f8 633d
00000060: afca a23d d472 b33e b77d 7c3e 3c85 143d
00000070: f586 213e b81b c83d 5121 1a3e 5519 0c3e
00000080: c2e1 3c3e d478 e43d 2ee7 6d3e

bcs.2.weight f4 [16]
1.0012515 0.9912259 0.9912142 0.9981348 1.0094175 0.9837765 0.9882823 1.0406551
0.97888386 1.04116 1.0251967 1.0041491 0.9585645 1.01425 0.99531716 0.98561925
00000000: 0229 803f fbc0 7d3f 37c0 7d3f c385 7f3f
00000010: 9834 813f c7d8 7b3f 1200 7d3f 3034 853f
00000020: 2298 7a3f bb44 853f a539 833f f587 803f
00000030: 7c64 753f f2d2 813f 1bcd 7e3f 8b51 7c3f

bcs.2.bias f4 [16]
0.025384434 -0.0020554196 0.005417048 0.008380205 0.022616802 0.022860728 -0.007924248 -0.022384379
0.024080237 -0.012261096 0.029976638 0.01501212 -0.0070685144 0.008732613 0.020649113 0.00035577422
00000000: 04f3 cf3c 38b4 06bb 7e81 b13b 214d 093c
00000010: df46 b93c 6c46 bb3c b5d4 01bc 725f b7bc
00000020: eb43 c53c c4e2 48bc 9191 f53c 65f5 753c
00000030: ff9e e7bb 3c13 0f3c 5428 a93c 3587 ba39

bcs.2.running_mean f4 [16]
0.3026055 0.22944316 0.10617754 0.14848961 0.3115207 0.24380612 0.18907177 0.17555177
0.2121957 0.24879447 0.27117878 0.2916435 0.25480208 0.18179171 0.22405839 0.26346186
00000000: 1cef 9a3e 26f3 6a3e 9c73 d93d a90d 183e
00000010: a47f 9f3e 50a8 793e 089c 413e d8c3 333e
00000020: d449 593e fac3 7e3e f2d7 8a3e 4c52 953e
00000030: 6b75 823e 9b27 3a3e 906f 653e 79e4 863e

bcs.2.running_var f4 [16]
0.12339742 0.11497235 0.054971036 0.06342246 0.22185113 0.12610346 0.15116648 0.0786003
0.13184892 0.10605458 0.12189524 0.1547248 0.18404184 0.10897312 0.1213548 0.107305676
00000000: c9b7 fc3d a076 eb3d 4f29 613d a2e3 813d
00000010: f12c 633e 4421 013e 63cb 1a3e 32f9 a03d
00000020: 6703 073e 2533 d93d 36a4 f93d 2e70 1e3e
00000030: 7775 3c3e 4d2d df3d de88 f83d 14c3 db3d

bcs.3.weight f4 [8]
1.0565807 1.0496485 1.0603721 1.045988 1.0452417 1.0161146 1.045659 1.0349984
00000000: 093e 873f e25a 863f 46ba 873f efe2 853f
00000010: 7bca 853f 0b10 823f 27d8 853f d47a 843f

bcs.3.bias f4 [8]
0.016210137 0.01622657 -0.0163614 -0.016042566 -0.01604609 0.015924709 -0.015995273 0.016010009
00000000: 1fcb 843c 95ed 843c 5808 86bc b36b 83bc
00000010: 1773 83bc 8974 823c 8508 83bc 6c27 833c

bcs.3.running_mean f4 [8]
0.2287033 0.3948792 0.26046792 0.23458618 0.29227915 0.21217476 0.35342276 0.20098102
00000000: 3331 6a3e 9b2d ca3e 0d5c 853e 5c37 703e
00000010: 9da5 953e 5744 593e d4f3 b43e f8cd 4d3e

bcs.3.running_var f4 [8]
0.1474223 0.24317513 0.13023949 0.11889545 0.14698276 0.11752667 0.16829829 0.09156219
00000000: dff5 163e e702 793e 805d 053e 757f f33d
00000010: a682 163e d3b1 f03d 6356 2c3e f584 bb3d
